RL-code/ik_net.pth (torch, 75465 bytes, 6 tensors)

net.0.weight f4 [128, 6]
000000 fc 12 87 be 9e 63 37 3e 7f d1 f7 3d 2a 12 4e bd
       -0.2638167 0.17909095 0.12100505 -0.05031029
000010 0f fb 09 bd 27 f5 95 3e a9 9c bf 3e 43 da 02 be
       -0.033686694 0.292886 0.3742421 -0.12778573
000020 f6 ab aa 3d a4 7e fe 3c f8 a3 b4 3d 2b c3 31 be
       0.0833358 0.031066246 0.08820337 -0.17359607
000030 93 5c 27 3c 70 a5 6a be 95 6b 47 bd a3 54 34 3e
       0.0102149425 -0.22914672 -0.048686583 0.17610411
000040 6b d5 5f be fd 8d bb bd 4b dc 65 3e 47 27 23 bc
       -0.21858756 -0.091579415 0.22447316 -0.009958095
000050 38 84 ca bd 35 8c b3 3d 84 e1 24 3e aa 12 92 bd
       -0.098885 0.08766977 0.16101652 -0.07132466
000060 d7 84 b8 bd fb 0e 6b bc 92 0a c2 bd 73 f4 24 be
       -0.09009712 -0.014346833 -0.094746724 -0.16108875
000070 f3 7a 95 be 88 b5 f3 3c c3 b8 09 3e c1 1b 0a 3e
       -0.29195365 0.029749647 0.13449387 0.1348715
000080 be 7f 9a 3c fd 89 42 be 8c 1f 65 be d5 ae 6b be
       0.01885974 -0.18997951 -0.22375315 -0.23015912
000090 a5 a1 4f 3e f1 13 b7 be d0 49 1a be 90 e3 7c 3e
       0.20276506 -0.35757402 -0.1506722 0.24696183
0000a0 15 7d 3b be 6f 37 2c be e9 cd 68 bd 55 2a 18 be
       -0.18309434 -0.16818021 -0.056836996 -0.14859898
0000b0 06 dc 8e be 51 f2 44 3e 9e 94 a4 3e a2 c3 35 3e
       -0.2790224 0.19233061 0.32144636 0.17750409
0000c0 05 8a 3d be 13 bf 08 3e 5b 7f ce bd 0b 6b 18 3e
       -0.18509682 0.13354139 -0.10082885 0.14884584
0000d0 32 44 56 be d1 88 e1 bd f6 66 0f be 7b 8e 75 3e
       -0.20924452 -0.11012424 -0.1400412 0.23980133
0000e0 8a 6f 9b be b2 d9 38 be 2f 03 6f be a7 fe 47 be
       -0.30358535 -0.18051794 -0.23341058 -0.19530736
0000f0 e7 33 b0 3d 7e 09 99 3e dd 25 97 be 00 58 aa be
       0.086036496 0.29890054 -0.29521075 -0.33270264
000100 b0 e7 49 be 99 47 61 be e4 6f a4 3e d4 5b ec 3e
       -0.19717288 -0.21999969 0.32116616 0.4616381
000110 01 ec 37 be db 52 50 3e b9 71 9f bd 64 7e 8d 3e
       -0.17961122 0.20344107 -0.07785363 0.2763549
000120 10 6f 05 bd 17 ee 7b be a2 cd 16 3e 64 00 8a be
       -0.03257662 -0.24602543 0.1472688 -0.26953423
000130 c8 d1 ef bd 2b 9c f0 3e 5b 62 04 3d 83 6c b1 3e
       -0.117099345 0.46994147 0.03232036 0.346531
000140 ca cd 9d be cc 76 ab be 05 84 11 3e 21 4e 06 3e
       -0.30821067 -0.33489072 0.14210518 0.13115741
000150 71 6a a7 bd 98 67 b7 3e c2 a5 cc 3d 0c e5 4e 3e
       -0.08174599 0.35821223 0.09992553 0.20204562
000160 6a 33 f2 3d 1f 8e fd bd 8a bf 99 bd ec 3e 98 bd
       0.11826213 -0.12380623 -0.07507236 -0.074338764
000170 02 e0 b2 bd 61 be 69 be 1b a9 84 3d 43 bc 84 be
       -0.08734132 -0.2282653 0.06477567 -0.25924882
000180 40 aa 9e be 57 ff b3 bd 4e f2 5e 3e 23 57 96 3c
       -0.30989265 -0.087889366 0.2177212 0.018352097
000190 d1 e3 05 3d 06 36 a2 3e 43 8a a0 be 4c 9c ac 3e
       0.032687966 0.31681842 -0.31355485 0.33712995
0001a0 64 21 5c be 94 97 0d be 61 c0 f5 bc ad 8f 9e be
       -0.21497113 -0.13827354 -0.02999896 -0.3096899
0001b0 6f 8a 14 3e 16 80 25 be 81 f8 36 be e7 fb c5 be
       0.14505933 -0.16162142 -0.17868234 -0.3866875
0001c0 c7 44 ad be b9 36 be 3e bb 34 cf 3e d1 5b 7a be
       -0.33841535 0.37151125 0.40469918 -0.24449088
0001d0 6b 48 0a 3e 2e c2 93 be 19 3f b7 3e f3 83 b9 bd
       0.13504188 -0.28859085 0.35790327 -0.090583704
0001e0 55 45 4c 3d 39 83 9f be cc cf 1d bc 3d 55 49 3e
       0.049870808 -0.31154802 -0.009632062 0.19661422
0001f0 df e9 c2 bd 01 1c 16 be 67 ca c4 3e cd b5 be 3d
       -0.095172636 -0.1465912 0.3843567 0.093120195
000200 3f a4 b2 bd e6 57 ae be 98 78 a8 3c e3 6e 90 be
       -0.08722734 -0.34051436 0.020565316 -0.282096
000210 f5 7c 59 3e 55 4a b9 be 47 95 fd be 3c e3 83 3a
       0.21239074 -0.36189523 -0.49527952 0.0010062228
000220 f1 f5 88 be a8 a9 b2 3e 03 ad 82 3e d5 ee bf 3e
       -0.26750138 0.34895062 0.25522622 0.37486902
000230 10 b3 d5 bd 99 4e 41 3e f9 10 90 bd 06 dc 54 be
       -0.10434544 0.18877639 -0.07034487 -0.20787057
000240 7b 2b fd bd 13 2f 91 be d5 4b 5e 3e d2 65 0c 3e
       -0.12361809 -0.28356227 0.21708615 0.13710716
000250 6a af 0e be 13 af 9c 3e 2d 22 d7 bd 7d 9b 5e 3e
       -0.13934103 0.3060232 -0.105045654 0.21739002
000260 0a d8 c7 3d 2e 41 93 bd e8 ea 00 3e b2 69 36 be
       0.09758003 -0.071901664 0.1258961 -0.17813757
000270 bc fd 92 3e d5 9f e6 bd 99 96 f8 be f5 5c d1 be
       0.2870921 -0.11260954 -0.48552397 -0.40891233
000280 7c 58 cc be 9b d4 59 3e 3b 70 a3 3e f0 20 bf 3e
       -0.39911258 0.21272509 0.31921563 0.37329817
000290 c2 e0 48 3e cb fa fd bd 79 18 7d 3e c1 ea bd bc
       0.19616988 -0.124013506 0.24716367 -0.023183228
0002a0 7b b1 52 be 96 84 18 3d d8 a2 3e 3e 42 01 1c 3e
       -0.20575516 0.03723582 0.18616807 0.15234855
0002b0 71 90 92 3e 92 d3 fb 3d f1 01 0f 3e 69 38 31 be
       0.28625825 0.12296213 0.13965584 -0.17306675
0002c0 16 dc 05 3e 3d ce 03 be ee 48 58 bd cf 6a 61 3d
       0.13072237 -0.12871642 -0.052803926 0.0550335
0002d0 e0 58 a1 be 1e 27 c2 bd 84 95 23 3e 1e b6 2c 3e
       -0.3151312 -0.09480117 0.15975004 0.16866347
0002e0 ea 81 9a bd c7 44 9f 3e 43 be 84 be 54 63 d8 be
       -0.075443104 0.3110716 -0.25926408 -0.4226328
0002f0 cd f7 17 3e d2 9c 86 3e ee 9c 57 be 88 96 67 be
       0.14840622 0.2629152 -0.21055958 -0.22616017
000300 cf de a0 be 54 9b a7 bd 5d ee e8 bd 7c 99 a9 3e
       -0.3141999 -0.08183923 -0.11373589 0.33124912
000310 2b cf 1d 3e c2 3a c4 be 9e 6c ec 3d 0e d7 75 3d
       0.1541106 -0.3832608 0.115441546 0.060019545
000320 c3 89 29 3e 63 37 b6 bd 44 7e 2b be 84 4e 85 3e
       0.16556458 -0.08897283 -0.16747385 0.26036465
000330 13 f7 6e be 5a b1 01 3e 7a 63 89 be 32 f3 a5 3e
       -0.23336439 0.1266531 -0.26833707 0.32412106
000340 31 5a 9b 3e 66 1c 64 3e cd 71 88 3e c7 1d c1 be
       0.30342248 0.22276458 0.26649323 -0.3771803
000350 9a 21 19 bd 88 1b 31 be 99 dd 9b 3e ae 7c d7 3c
       -0.03738556 -0.17295659 0.30442503 0.02630457
000360 5f d2 ae 3e e7 00 e5 be 81 24 92 be b5 53 a1 3e
       0.34144875 -0.4472725 -0.28543475 0.31509176
000370 36 b6 71 3e 81 b2 51 be 21 0f 0e be 68 ac 81 be
       0.23604664 -0.2047825 -0.13872959 -0.25326848
000380 65 cf dd bc 16 e0 bd 3d c0 1e 41 3e 39 c2 dc 3d
       -0.027076432 0.092712566 0.18859386 0.107792325
000390 ff 38 c1 3d 40 8f c3 3e 5b fd 0d 3c 10 03 81 3d
       0.09434699 0.3819523 0.008666362 0.06299412
0003a0 e0 31 7a 3e 37 c8 46 be 54 5c 25 3d ad cf af 3e
       0.24433088 -0.19412313 0.040371254 0.34338132
0003b0 9a 24 35 3e 19 d3 43 3d a3 8c d1 3e 82 e2 bc 3b
       0.17689744 0.04780874 0.4092761 0.0057643065
0003c0 d0 dc 9f be 20 23 62 be 99 a6 52 3e a0 16 5f 3c
       -0.31223154 -0.22083712 0.20571364 0.013616234
0003d0 81 a9 bb be cc 5f 90 be a8 43 e4 3d f4 2e cb 3c
       -0.3665276 -0.28198087 0.11145717 0.024802662
0003e0 f4 18 bc 3d 87 00 3e be 57 43 0d 3e 39 50 0c 3e
       0.09184447 -0.18554889 0.1379522 0.13702478
0003f0 22 85 01 be 39 d8 99 3e 17 f2 03 3e d3 dc 0d 3e
       -0.12648442 0.30047777 0.12885319 0.13853769

net.0.bias f4 [128]
000000 b8 b1 81 bd 04 48 bf 3e ed f2 a1 be e5 6f 34 3e
       -0.06332725 0.3735963 -0.3163065 0.1762081
000010 f3 97 c0 3d 35 b1 be 3e 95 c8 96 3e b8 c1 5c 3e
       0.09403982 0.37244573 0.29449907 0.21558273
000020 94 1f 80 3e ec 20 94 be 8d 66 b6 be 6c 55 b8 be
       0.25024092 -0.28931367 -0.35625115 -0.36002672
000030 b7 e2 a4 3d 83 18 9a bd e9 fc 3c be 5f dc 2b 3e
       0.08051055 -0.075242065 -0.18455853 0.16783284
000040 f0 d0 61 3e a3 7b a2 bd 03 50 90 be de 7a 1f be
       0.2205236 -0.07933738 -0.28186044 -0.15574214
000050 c9 c7 85 be 5b 6b 45 bd a1 39 b4 be 00 64 04 bf
       -0.26128986 -0.048198085 -0.35200217 -0.5171509
000060 6a 62 2b 3d de 0d 91 3e f4 be a9 be 86 1c 5c be
       0.0418419 0.28330892 -0.33153498 -0.21495256
000070 e9 99 44 3e 71 5c a9 bd 7e ec cd be 45 4b 90 bc
       0.19199337 -0.08269585 -0.40219492 -0.017614016
000080 6a f0 cf be 18 28 49 3e 5b 53 89 3e 71 54 32 bd
       -0.4061311 0.19644201 0.26821408 -0.04353756
000090 bd 5b 0f 3c 8d 80 4e be 2d 29 16 bd 58 62 5f be
       0.008749899 -0.20166226 -0.036660362 -0.21814859
0000a0 c1 ff b2 3e cd 5a a3 bd c8 fe 89 3e aa 9f ad 3d
       0.3496075 -0.07976303 0.26952195 0.08477719
0000b0 18 b8 fc 3d f0 3e 89 be 29 c5 44 bd cc df e0 be
       0.123398006 -0.2680583 -0.04803959 -0.43920743
0000c0 1e 65 08 bf ba d2 8f 3c 69 cb e0 3d 83 4b fa 3d
       -0.5327929 0.017556537 0.109762974 0.12221434
0000d0 5b 5c 41 be 34 0c c7 be 6e 1a 80 3e 5d db 51 bd
       -0.18882887 -0.38876498 0.25020164 -0.05123459
0000e0 83 7b 5d 3d 40 b9 4d be 30 6d 64 be a2 9c a3 bd
       0.054072868 -0.20090199 -0.22307277 -0.0798886
0000f0 67 04 61 be a8 b8 3a 3e d7 29 a4 be 5e 10 35 be
       -0.21974336 0.18234503 -0.3206317 -0.17682025
000100 e7 3b c8 bc da dd a3 bd a2 78 c0 3d 90 9d f8 3e
       -0.024442626 -0.08001299 0.09398009 0.4855771
000110 4e 40 c1 be 7d 4c b3 3e da c1 8f bc 7d 85 7d 3e
       -0.37744373 0.35019293 -0.01754849 0.24757953
000120 69 3c 3b 3e 66 f5 a0 be 74 1e c4 bc 4d 60 e6 bd
       0.18284763 -0.31437224 -0.023940302 -0.11248837
000130 ae d5 c5 3d 9a 38 8d 3d 94 e8 85 be 61 7c f8 be
       0.09659897 0.068955615 -0.26154006 -0.48532394
000140 a6 1c e9 bd 77 d4 33 bf 1b 10 bf be 43 c3 53 be
       -0.113824174 -0.7024607 -0.37316975 -0.20679955
000150 cd 6e e4 3d be f9 d7 3d 3e d3 2e be 76 e3 41 3e
       0.11153946 0.105456814 -0.1707277 0.18934426
000160 e1 36 92 bd e3 bf 7a 3e fa 01 9d 3d 0e a4 54 3e
       -0.071393736 0.24487261 0.076663926 0.20765707
000170 81 e2 83 3c ac d3 8c be ae f7 51 bc ef 4f e2 be
       0.016099216 -0.27505243 -0.012815399 -0.4420161
000180 ce 8a 14 bf 58 ed 27 be 15 74 dd be 4e 32 97 be
       -0.580243 -0.16399133 -0.43252626 -0.29530567
000190 74 30 b4 3c 1e 0e e4 be 88 eb 96 3e 23 ff 81 3d
       0.02199576 -0.4454202 0.2947657 0.063474916
0001a0 c9 56 ac 3d db 06 7d be 4a 17 04 bf b0 27 17 be
       0.084149905 -0.24709646 -0.51598036 -0.14761233
0001b0 45 65 fd bc a5 74 7d 3e 3f 35 7e 3e 3c 35 05 3e
       -0.030932078 0.24751528 0.24825 0.13008589
0001c0 d5 8e 78 3c 98 af 37 3e 8d 13 36 3c 88 8d 88 3d
       0.015170773 0.17938077 0.01111306 0.0666762
0001d0 31 0b 84 3e b9 98 44 3d 02 81 cb be 10 3e 9c bd
       0.25789788 0.04799721 -0.39746863 -0.07629025
0001e0 e9 a2 12 bf 3b 39 88 3e 97 ea 49 be cf 78 ce 3d
       -0.5727983 0.26606163 -0.19718395 0.10081636
0001f0 8f b7 ac 3e 97 fa 96 bd b5 5d 9f bd 3a f4 b3 be
       0.33733794 -0.07372015 -0.07781545 -0.35147268

net.2.weight f4 [128, 128]
000000 9b cb 9d 3c 99 ac 1b be b5 ad c3 3e bd a7 9e bd
       0.019262126 -0.1520256 0.38218465 -0.07746837
000010 7c 4f d2 3d bc 86 92 3d d6 ac ae bd 89 ed fb bd
       0.10269067 0.07154605 -0.085290596 -0.123011656
000020 01 02 83 3c ec eb c4 3d a3 dd 1e 3d 90 ad 7a be
       0.015992166 0.09615311 0.038785588 -0.24480271
000030 c0 96 33 bd 12 e2 fe 3d cd 7e 02 bd 13 1d f3 3d
       -0.04384494 0.12445463 -0.031859208 0.1187078
000040 32 40 44 3d b5 67 15 3e da 70 7b 3e c6 d2 97 3d
       0.047912784 0.14590342 0.24554768 0.07413249
000050 77 2a de 3d a1 04 b5 bd 31 91 df be 4b e6 40 be
       0.10847943 -0.088387735 -0.4366546 -0.1883785
000060 53 63 86 3c 6c f2 17 3e fd d2 96 3e da d0 68 be
       0.016404783 0.1483857 0.29457846 -0.2273592
000070 92 14 c2 bb f2 a2 3c bc 2d 45 f3 3d a3 fb 66 3d
       -0.0059228623 -0.011513459 0.118784286 0.056392323
000080 62 15 3e bc 52 9d bc 3c 2a 1e 12 3d f5 a0 b3 bb
       -0.011601778 0.023024235 0.035673298 -0.005481834
000090 ad 2b 4e ba 8b cd 5d bd 21 ac 97 3d 84 ba b1 3d
       -0.00078647846 -0.0541511 0.07405878 0.08678153
0000a0 af 9f 31 3e 1c 6c 17 3d c1 13 d2 bd 35 73 1a 3d
       0.1734607 0.036968336 -0.10257674 0.037707526
0000b0 c7 18 af 3d d5 bb 20 3d 02 e2 ac 3d a3 45 46 bd
       0.08549648 0.03924163 0.08441545 -0.048406255
0000c0 d8 3b 87 bd fe 21 03 3d 03 a1 89 3d 97 f8 40 be
       -0.06603211 0.03201484 0.06720164 -0.1884483
0000d0 3e a8 20 3e 89 6c ed 3d 38 36 97 bd d9 76 88 bd
       0.1568918 0.11592967 -0.07383388 -0.066632934
0000e0 c1 84 e2 bd 2d 86 70 3d 47 34 ac 3c 73 5c 46 3d
       -0.11060477 0.05872171 0.021021022 0.04842801
0000f0 58 84 ea bd 29 85 9b bd 2e 98 2c be 01 9b 84 bd
       -0.11451024 -0.07593758 -0.16854927 -0.06474877
000100 f9 91 37 3d bd 9f f8 3d 46 ea 4a 3b 8a b9 c8 bd
       0.044816945 0.12139843 0.0030962392 -0.09801014
000110 30 e4 eb be e8 e5 4d 3d a5 37 61 bd 2f 1b b1 3d
       -0.4607253 0.050268084 -0.054984707 0.08647763
000120 6f 97 f7 bd cf 87 63 3e 8b 24 ae bd 0e 7e 1d bd
       -0.120894305 0.22219776 -0.08503064 -0.038450293
000130 4d a0 13 bd 2b 85 68 bd 86 a2 33 3e 5f 41 49 3e
       -0.036041547 -0.056767624 0.17542467 0.19653843
000140 3e 56 7b 3c 74 0a ae 3d cc f7 a5 3c fd 00 48 3d
       0.015340386 0.084980875 0.02025976 0.048829067
000150 95 86 9b 3d 07 9f ac bd e3 a9 f5 3d f3 ea 72 3d
       0.07594029 -0.084287696 0.11995294 0.059306096
000160 2c cf c9 3c 41 4e e9 3d 4f 0f ad 3d 43 67 9d bd
       0.02463492 0.11391879 0.084501855 -0.07685711
000170 86 b0 97 bd a0 61 9f bd 76 0a 95 3d 71 80 81 3c
       -0.07406716 -0.07782292 0.07277386 0.015808316
000180 68 a0 14 be e5 a1 77 3c 4b ee 8d 3d 46 14 be bd
       -0.14514315 0.015114282 0.069302164 -0.092812106
000190 3c 69 5d 3d d6 46 90 bd e9 cb 3b 3e fb 31 7f 3b
       0.054055437 -0.07044761 0.18339504 0.0038939703
0001a0 e7 e1 bc 3d f3 b1 e9 bd e4 3e b6 3e d3 06 06 bd
       0.09222775 -0.11410894 0.35594857 -0.03272135
0001b0 08 a1 05 be 8b 0b 0e be c7 6c 7e 3d 20 2d 58 be
       -0.1304971 -0.13871591 0.062115457 -0.21110964
0001c0 d4 80 21 3e d0 e7 0b 3b 1f 44 6d be af 72 95 bd
       0.157718 0.0021347888 -0.23170517 -0.07297265
0001d0 12 78 ac 3d 59 8e 9e bd 99 c4 f9 3e 7c b0 0a be
       0.08421339 -0.077419944 0.48782805 -0.13543886
0001e0 6b 05 ab bd 73 d0 08 bc bd 4f 9e 3d 09 e8 2c 3e
       -0.08350643 -0.008350479 0.077300526 0.1688539
0001f0 09 f7 f0 3d 6a 0a 0a 3e 7e 4c 24 3d b0 94 7f be
       0.11765868 0.13480535 0.04011201 -0.24959064
000200 37 7c 83 b9 e0 d0 26 3a dc 31 8a 3d 0a 95 ee 3d
       -0.00025078814 0.0006363522 0.06747791 0.11649521
000210 54 2d cf 3d ae 8d b8 3d 8b 96 1a 3d 5a fe 91 bd
       0.101160675 0.09011398 0.037741225 -0.07128592
000220 e4 4e f0 3d 77 fe a2 3c af 4d 3f 3d b0 f2 1d 3d
       0.11733797 0.019896729 0.046704944 0.038561523
000230 09 24 93 3d 20 61 ed 3d 8d 79 f6 3d c7 d8 8e bd
       0.071846075 0.11590791 0.12034903 -0.06974941
000240 58 a3 9c 3d 71 54 82 3c e0 5b 01 3e 0d 65 9c bd
       0.07648343 0.015909405 0.12632704 -0.076364614
000250 ba 8b ca bc 15 6a cb bc 70 76 08 3e 18 b9 3f 3e
       -0.02472483 -0.024830857 0.1332643 0.18722951
000260 df 32 cd bc 2c c5 94 3d 13 28 56 3e 7d eb 90 3d
       -0.025048671 0.0726417 0.20913725 0.07076166
000270 76 33 61 3c ff f6 9d bd 74 6e 08 bd 2b 1e ad bd
       0.013745179 -0.077131264 -0.03330846 -0.0845302
000280 22 c2 91 bc 6c 2a e8 bc 1b b2 9d bc 07 ea 8a bd
       -0.017792765 -0.02834054 -0.019249966 -0.067829184
000290 31 2d af bd 72 18 a8 bd d9 84 31 3e da 1e 84 3d
       -0.085535415 -0.082077876 0.17335834 0.06451197
0002a0 46 96 9d bd 12 f5 e1 bc 9a d2 1c 3e 65 97 0e 3e
       -0.07694678 -0.027582679 0.15314713 0.1392494
0002b0 c2 ed 35 bd 3e 9c d5 3d fd 2c d7 bb c4 bf 51 3e
       -0.044416197 0.104301915 -0.0065666423 0.20483309
0002c0 42 82 f5 bb c3 e3 22 bd 2e c0 5e 3d 0c 1b 1d 3d
       -0.0074923346 -0.03976799 0.054382496 0.038355872
0002d0 60 98 d8 bc 58 91 00 3d 5d 9d c5 3d 1d 26 15 bd
       -0.026439846 0.03138861 0.09649155 -0.0364133
0002e0 2c 73 9d bd aa 34 f9 bb 93 88 fc bd aa 9b db bc
       -0.07687983 -0.007605155 -0.12330737 -0.026807625
0002f0 74 5f 90 3d 82 1e 4e bd 4c b0 4d 3d 58 81 17 3e
       0.07049456 -0.050322063 0.050216958 0.14795434
000300 70 07 56 3e 83 1a 83 bd 37 fd 16 3e 0b c3 27 bd
       0.20901275 -0.06401541 0.14745031 -0.04095749
000310 1f 33 d6 3d ee eb ac 3c 74 ef f5 3c 3b 7b 74 3d
       0.10458969 0.021108594 0.030021407 0.059687834
000320 03 de e3 3d c1 b5 62 3d 3d 04 37 bd e4 5a b2 3c
       0.1112633 0.055349115 -0.044681776 0.021771856
000330 58 28 ae bd 46 2a ed 3d f0 17 e3 bd ab 8c f9 3d
       -0.08503789 0.11580329 -0.1108855 0.121850334
000340 4e 47 13 3e 08 8c 29 3e e1 c7 9e bc 8c 7f 2c 3b
       0.1438267 0.16557324 -0.019382419 0.002632114
000350 97 d9 b8 bd d5 c7 18 3e ec 9e b8 3c 78 ae 3a 3d
       -0.09025877 0.1491998 0.022536717 0.045576543
000360 61 f9 bb bb 0b 8a 65 3d d4 d3 e5 bc 9e df aa 3c
       -0.0057365154 0.05603985 -0.02805511 0.020858582
000370 2a 3d 86 3c c1 d4 52 3d e5 6c 5c 3d bc e4 f6 3d
       0.016386587 0.05147243 0.053814787 0.12055346
000380 69 7b 9a 3d c4 e3 fa bb 1d 6d 0a be ca f7 87 3d
       0.0754307 -0.0076565463 -0.13518186 0.06639059
000390 4b 86 12 bc f2 41 9a 3d bd 32 ee 3d 8f a9 68 3d
       -0.008943151 0.07532109 0.11630771 0.05680233
0003a0 ae 88 e5 3d 1a 27 98 3d 17 86 79 3e dc 62 92 3c
       0.1120771 0.07429333 0.24367557 0.017869405
0003b0 ba 86 2d ba 9a 82 89 bc 34 38 01 3d 96 96 fe 3c
       -0.0006619502 -0.016785908 0.03154774 0.031077664
0003c0 3d 7a a0 3d 08 64 ba 3c e8 f1 51 bc a8 47 35 3e
       0.07835815 0.022752777 -0.012814023 0.17703116
0003d0 23 6b 8a bd d4 ee 7b bc 58 8b 7a 3e e6 4a d3 3d
       -0.06758716 -0.015376765 0.24467218 0.1031702
0003e0 35 63 83 be a1 c2 d6 bb 3b 19 c9 3d 63 a2 62 3d
       -0.25661626 -0.0065539633 0.098192655 0.055330645
0003f0 01 6b 86 3d 7a 53 e1 ba c1 3c 7b 3d 57 49 bc 3d
       0.06563378 -0.0017191016 0.061337236 0.09193676

net.2.bias f4 [128]
000000 b6 3b 60 3d b6 39 86 3d 01 6f f7 bc f2 31 d6 3b
       0.054744445 0.06553976 -0.030204298 0.0065367157
000010 ef 14 ee bc 74 8e 6c bd a2 16 a3 bc a5 71 51 bd
       -0.029062716 -0.05775304 -0.019908253 -0.05113377
000020 66 27 b0 3d b4 8a 46 3d db c4 9f 3c 58 ca 5f 3d
       0.08601265 0.04847212 0.019503048 0.05463633
000030 eb fd 94 3d be 78 41 bd f3 28 3f bd 58 df 00 3e
       0.072749935 -0.04723429 -0.04666991 0.12585199
000040 85 49 e5 bd 3a 1b 72 3c 89 d0 25 3d 8a 94 8d bd
       -0.11195663 0.014776999 0.040482078 -0.06913097
000050 14 e9 a3 bc ad 24 55 bd 50 9c 5f 3d 69 49 19 3d
       -0.020008601 -0.05203693 0.05459243 0.037423525
000060 5b f2 ae bd 5f 3a a9 bd 72 3f ba 3c 94 76 f7 3b
       -0.085423194 -0.082630865 0.022735331 0.0075519774
000070 4e 84 46 be c5 1a a8 3c 97 47 d2 bb 82 15 01 bd
       -0.19386408 0.020520577 -0.0064172256 -0.031514652
000080 10 2b 80 bd 98 1c b0 bd 2e e7 3b 3e 7f d0 74 bd
       -0.062582135 -0.08599204 0.18349907 -0.05976915
000090 65 08 95 3d f8 77 e2 bd 5c db 29 3d 6b 02 85 be
       0.07276992 -0.110580385 0.041468963 -0.25978407
0000a0 ea a7 ab bd 45 6c 90 3d cd 6b a9 bd 90 fa e9 3d
       -0.083816364 0.07051901 -0.082725145 0.11424744
0000b0 8a 8d dd 3c 3d 93 c8 3c 7b 0e 02 3e d4 0d 99 bd
       0.02704503 0.024484271 0.12700836 -0.07473341
0000c0 04 6a e2 3d e1 9e a8 3d ec 25 77 38 87 a6 88 3d
       0.11055377 0.08233429 5.8924707e-05 0.066723876
0000d0 08 88 e7 3d c7 52 5b be e2 67 3b bd 1f 66 8f 3d
       0.11305243 -0.21418296 -0.045753367 0.070019
0000e0 73 65 0a be 4a 82 0e 3d 3a cb 84 3c a9 0e 37 3e
       -0.13515262 0.034792222 0.016210187 0.17876686
0000f0 7f d9 ae bd 64 bb d1 bd fa bc 07 3d 83 af 52 bb
       -0.08537578 -0.1024082 0.033139206 -0.003214807
000100 f1 48 4f bd fe 4f 50 bd 0b 94 27 be 11 7e 63 3d
       -0.05060667 -0.050857536 -0.16365068 0.05554015
000110 41 48 31 bd 87 a7 ba 3b 70 5a fc 3d 59 49 ed 3c
       -0.043281797 0.0056962403 0.12321937 0.028965639
000120 aa 1e 48 3d 22 da 93 3c 13 f7 c2 bc b3 ef 32 3d
       0.04885737 0.01804835 -0.023799455 0.043685626
000130 1d fc e0 bc d5 80 02 bd 6a be 27 bd e3 f7 23 bd
       -0.027463967 -0.031861145 -0.040953077 -0.040031325
000140 69 e3 9a bd 3c 17 8a be 43 57 e0 bc 4f d8 a7 3d
       -0.07562906 -0.2697085 -0.02738536 0.081955545
000150 94 91 04 3e d2 5a d0 3d 38 04 9a 3d a8 ee 10 3e
       0.12946159 0.101735726 0.07520336 0.1415354
000160 62 69 06 be 06 f1 02 3e fd 48 b2 3d 4c 25 9f 3d
       -0.13126138 0.12787256 0.08705328 0.07770786
000170 b9 68 61 bc 2d 70 3b be 21 ea 20 bd 25 93 e7 3c
       -0.013757878 -0.1830451 -0.039285783 0.028268406
000180 e1 a1 f3 bc bc 10 fb 3c 0a db e2 bc 9c 60 90 3d
       -0.029740276 0.030647628 -0.027692337 0.07049677
000190 7f 9f e9 bc 41 9a 17 3b 9a 15 0f bd 4e a1 95 bb
       -0.028518436 0.0023132714 -0.03493271 -0.004566348
0001a0 a6 cf d1 bd 02 eb dd 3d e9 29 0d 3e 6b 4b 9b bd
       -0.10244684 0.1083584 0.13785519 -0.07582744
0001b0 f6 fb a7 bd 71 c0 d5 3d 98 c9 5a bc d7 5f 94 bc
       -0.082023546 0.10437096 -0.013353728 -0.018112106
0001c0 2b 43 41 3a 22 ef 0f be 74 59 39 3d 47 28 98 bd
       0.00073723745 -0.14056066 0.045251325 -0.07429557
0001d0 a7 18 cb 3d 87 95 8d bd 96 d4 2e be 31 9d d4 3c
       0.099168114 -0.06913286 -0.17073283 0.025953861
0001e0 da f3 ce bd 41 76 2b 3d 19 79 24 bc 5b 57 7f 3d
       -0.10105105 0.041860823 -0.010038638 0.062339168
0001f0 00 af 92 bd 96 9a b9 bd c5 4f 4e 3d 5a 2a 14 3c
       -0.07162285 -0.09062688 0.050369043 0.0090433005

net.4.weight f4 [6, 128]
000000 42 85 aa 3d cf 10 85 3d 40 d1 0e 3c 6e f9 8f bb
       0.08326198 0.064973466 0.008716881 -0.004393748
000010 ac 9b 53 bc 52 48 62 bc 2f b3 da bc 3d aa 09 be
       -0.012915533 -0.013811188 -0.02669677 -0.13443847
000020 37 9f 66 3b 29 a2 06 bc 93 7b b3 bd c0 04 2c 3d
       0.0035190114 -0.008217373 -0.08763804 0.041996717
000030 96 0f 95 3d f3 85 72 bb c8 92 80 bd 97 e8 55 bd
       0.072783634 -0.003700611 -0.06277996 -0.052223768
000040 2d 76 2d bd 7b 47 a7 bd 53 2e 88 3d dc 3e 05 3d
       -0.04234903 -0.08167931 0.06649461 0.03253065
000050 6b 78 b9 bd 65 bd 8c bc 7e 36 0d bd 36 1c 32 bc
       -0.09056171 -0.017180154 -0.034475796 -0.010870984
000060 53 70 2d 3c f3 c9 14 3c 15 cc 7f bd 0f b2 8c bd
       0.010585862 0.009081352 -0.062450487 -0.068698995
000070 99 77 d4 bd 75 1b 03 3d 4e b7 d0 3d 59 a4 80 bd
       -0.10374374 0.032008607 0.101912126 -0.06281347
000080 fa 57 8c bd 64 01 0d bc 74 f8 f7 3c f2 6a 40 3d
       -0.06852718 -0.008606289 0.030269839 0.04697699
000090 91 ec 7e 3d 00 13 dd bd 2d 5f d1 3c 7f 46 83 bc
       0.062237326 -0.107946396 0.025558079 -0.016024826
0000a0 40 cb 0f bc a9 07 31 3b b0 9b d6 bc 34 59 86 bd
       -0.008776486 0.0027012622 -0.026197284 -0.06559983
0000b0 d8 a5 ab 3c 30 2d 83 3b 7b 1a f7 3c 98 ee 22 be
       0.020953104 0.0040031895 0.030163994 -0.15911329
0000c0 05 f7 95 bc 30 04 40 bd 6d 67 39 3d cc 67 a7 bd
       -0.018306265 -0.046878994 0.04526465 -0.081740946
0000d0 51 b2 17 bc a8 0d f7 3a 59 d3 00 3d 0f 95 4b bd
       -0.009258823 0.0018848674 0.031451557 -0.0497027
0000e0 32 b1 34 bd fa 2b ba bc 26 f4 a1 bd 10 ae 15 3d
       -0.0441143 -0.022726048 -0.07907896 0.036542952
0000f0 0f 64 9c bd cd 7f 81 bd 73 bb e4 3c 8b eb ef bc
       -0.07636272 -0.06323204 0.027921414 -0.02928712
000100 52 83 ab b9 8e 4c b0 3d 31 dd d6 bd 8a dc 30 bd
       -0.00032713503 0.08608352 -0.10491408 -0.043179072
000110 44 25 43 3d a9 fa b7 bb db 49 de 3d 3e d6 97 3d
       0.04764296 -0.005614598 0.108539306 0.0741391
000120 39 07 46 3d 0b 6b ec 3c 8a cb 98 3c 17 31 31 bc
       0.04834673 0.028859636 0.018651742 -0.010814927
000130 80 dc ce 3c 90 e8 13 3d f9 d6 a4 bd 37 a4 19 3c
       0.025251627 0.03611046 -0.08048815 0.009377531
000140 bf 0d f5 3c 82 63 2c be 2d 80 be bd fd b1 f7 bb
       0.029913781 -0.16834834 -0.09301791 -0.0075590597
000150 4b 06 da bd 20 56 98 bb 34 7a 96 3d 95 ba 7e bd
       -0.106457315 -0.004648939 0.07347527 -0.062189657
000160 10 c5 d0 3b fb 5a 4f bd 2a a1 2e 3d 1f 3b 06 3d
       0.006371148 -0.050623875 0.042634167 0.032771226
000170 dc 84 03 bd 8a 2f 7b bd 56 c4 c8 3c 3e 32 bf bd
       -0.032109126 -0.061324634 0.024507683 -0.09335755
000180 0f 8e 34 3d 83 c4 29 3d 55 86 83 3c 2a 92 0b 3c
       0.04408079 0.041447174 0.016055265 0.008518735
000190 84 64 47 bd c4 d2 a0 bd a3 a0 74 bd e2 6b 77 bd
       -0.048679844 -0.078527 -0.059723508 -0.06040562
0001a0 dd f8 5a 3d bb 26 41 bd 1b 7a c9 3c b2 90 a0 bc
       0.05345999 -0.047156077 0.024594357 -0.019600246
0001b0 5b d4 b6 3b 67 47 b5 bd 8d e5 d5 3c 31 19 21 bd
       0.005579514 -0.088515095 0.026110435 -0.039330665
0001c0 65 0f 9c bd d1 b8 1d bd a1 7e 9b 39 85 a3 bd bc
       -0.07620124 -0.038506333 0.0002965825 -0.023149261
0001d0 c7 02 53 3d 9e 3d 97 3c a2 12 90 3c d3 79 2f 3d
       0.05151632 0.018461999 0.01758701 0.04284079
0001e0 cb 42 16 bd a1 95 25 bd 2b c4 ea 3d 87 97 df 3c
       -0.036684792 -0.0404259 0.11463197 0.027293934
0001f0 ba 20 d9 bc 94 45 37 bb eb 22 11 3c fc a7 8b bd
       -0.026504863 -0.0027965056 0.008858423 -0.0681915
000200 82 b0 fe bd c7 76 a8 3d 2a 98 b1 bc eb dd 0a bd
       -0.1243601 0.0822578 -0.021679003 -0.033903044
000210 5b 73 99 3c ad e9 34 bc a8 4e 42 bd 51 c7 3c 3d
       0.018731764 -0.011042041 -0.047438294 0.04608852
000220 1f 2a 6e bd ab 0e a4 3c 36 c4 9c bd 58 02 3d 3d
       -0.05814564 0.020026525 -0.07654612 0.046144813
000230 20 98 2d bb cd 7f 2b bd db 1f b5 bd 9d 9a f2 bc
       -0.0026488379 -0.041869927 -0.088439666 -0.029614741
000240 77 17 fb 3d eb 4a 93 bb 5a 15 ca bc 60 6f d7 3d
       0.12260335 -0.004495015 -0.024668384 0.1051929
000250 60 58 09 3d 6f d3 b9 3d 0b 4c 84 3a 2c f1 c9 ba
       0.033531547 0.09073531 0.0010093463 -0.0015406958
000260 98 86 1f 3e 43 91 a2 3c 97 6e fd bd 8e d3 42 3d
       0.15578687 0.019844657 -0.12374609 0.047565036
000270 1e b4 24 3e 6a a5 82 3d e2 c8 af 3d 6f 31 56 bc
       0.16084334 0.063792065 0.08583237 -0.013073309
000280 00 6c 4f bc b2 73 85 bc 26 7d 9b bd b5 34 b9 3d
       -0.012660027 -0.01629052 -0.075922295 0.09043256
000290 e8 d4 99 bd 86 4c d9 3c 01 4c b4 bc 56 70 00 3e
       -0.07511312 0.026525747 -0.022008898 0.12542853
0002a0 ff a4 3b 39 75 83 6f 3d 0b 59 3e bc 16 c3 f7 3c
       0.00017895176 0.058474977 -0.011617909 0.030244391
0002b0 f2 5a 39 3d ed 14 cc 3a 13 d2 5f 3b bb 2d 30 3d
       0.045252748 0.0015570201 0.0034152314 0.043012362
0002c0 f0 d8 1c bd 54 d4 d8 3b 22 9c ed 3b 30 21 a5 bd
       -0.038292825 0.0066171084 0.0072512785 -0.08062971
0002d0 a7 04 04 be 04 38 f4 3c 57 8c b0 bb 9c 2f ae bd
       -0.128924 0.029811867 -0.0053878236 -0.085051745
0002e0 b8 de 69 3e 01 25 23 3d 2a d6 f7 bc fe f6 9e bd
       0.22838867 0.03983021 -0.030253489 -0.07761954
0002f0 3f 5a 0f bd 1e a5 f8 bb 65 ff 9c bd fa 11 bc bb
       -0.034998175 -0.007588043 -0.076659 -0.0057394477
000300 90 cd fa bc 93 b3 af bd 0d b5 4b 3d 67 76 c9 bb
       -0.030615598 -0.08579173 0.04973321 -0.006148148
000310 4c 1c 85 3c b1 98 be bc 76 24 c4 3d 84 63 fd bd
       0.016248845 -0.023266168 0.09577267 -0.12372497
000320 0f 1b 11 3e a6 b9 4e 3d b3 54 c0 3c 11 1e b0 3c
       0.14170478 0.050470017 0.023477888 0.021498712
000330 af 05 07 3c d8 95 c9 3d b7 f6 7e 3d 41 47 66 bd
       0.008241101 0.098430336 0.062247004 -0.056220297
000340 40 4e 0e 3c 01 56 e8 3d 70 9f f8 bd 11 6d 66 3c
       0.008685648 0.11344529 -0.12139785 0.014064089
000350 37 e1 ff bc 78 ca c4 3d 6f 87 f5 bc df 93 0c bc
       -0.03123532 0.0960893 -0.029971806 -0.008580177
000360 7f 98 23 3e b8 a9 aa bd f5 49 80 bd 68 0e 79 3d
       0.15976141 -0.083331525 -0.06264106 0.060804754
000370 b3 2a 75 3c 77 48 ad 3d dd 24 f5 3c a8 7a ad bd
       0.014963794 0.08461087 0.029924804 -0.084706604
000380 27 da 09 3e bc 54 9b 3d de be 9c bc cb ba 02 3d
       0.13462125 0.07584521 -0.019133981 0.03191642
000390 ae 1c 23 3d a1 60 0f 3d 5d ab a5 3d 9d 9e a4 bd
       0.039822273 0.035004262 0.080893256 -0.080380656
0003a0 09 b8 c8 bd 07 e4 63 3d 4b ed 81 bd a7 01 1e 3d
       -0.09800727 0.055637386 -0.06344088 0.038575795
0003b0 b3 05 49 3d dc 2a 58 bb 0a 49 57 bd 49 1e 8b bb
       0.0490777 -0.003298453 -0.05255989 -0.0042455536
0003c0 b7 73 ad bc aa a7 6d 3d 04 35 90 ba 6f b3 ab 3d
       -0.021173341 0.058021225 -0.0011002128 0.083838336
0003d0 4b 2e 8f 3d da 20 9a 39 9e f9 c3 3e 02 fc 14 bd
       0.069912516 0.00029397645 0.3827638 -0.036373146
0003e0 30 65 b4 bb f0 56 2a bd 32 a1 dd 3d fa d4 ff 3c
       -0.0055052266 -0.041586816 0.10821761 0.031229485
0003f0 8e 0b d1 bb 82 40 b2 3d 12 20 65 bd 29 af 0d bd
       -0.0063795513 0.0870371 -0.055938788 -0.034590874

net.4.bias f4 [6]
000000 b4 c4 07 3e c2 de c4 bc 7e 38 96 3b 0c c7 f2 3c
       0.1325863 -0.024032 0.004584371 0.029635929
000010 cb 58 94 3d 00 a1 16 bd
       0.072434984 -0.036774635
