Data-Files/Big-Logs/ik_net.pth (torch, 75465 bytes, 6 tensors)

net.0.weight f4 [128, 6]
0.39068013 -0.038334098 -0.08459089 -0.31209227 0.13169087 -0.32165068 0.2989281 0.04758589
-0.20213205 0.35412106 -0.23772156 -0.34482786 0.0073523084 -0.44375178 0.32667363 -0.17465939
0.34379068 0.3383118 -0.24468644 -0.024232935 -0.1741548 0.078172415 0.055974554 -0.18511148
-0.07246914 -0.32553643 -0.08905676 -0.106259815 -0.04499872 -0.10139298 0.45138383 0.47792923
0.046237256 -0.2500546 -0.264395 -0.2622953 -0.14537632 0.27307025 0.07853601 0.08082654
0.0784518 0.06907599 0.10522009 -0.24791464 0.18260376 -0.16212673 0.31155002 0.3542496
0.3349415 0.37279513 0.25473902 0.36579362 0.1781305 -0.14369754 -0.20720026 -0.15539226
-0.37058616 0.21935782 -0.2432362 0.18613131 0.069646664 -0.29081053 -0.21896845 -0.07204951
0.037156243 0.12172022 -0.24761881 0.22484179 0.091854215 0.26650575 0.2525913 -0.24522802
-0.17057788 -0.33442685 -0.09945169 -0.17880121 -0.34232423 0.37657636 -0.18685466 -0.44099936
0.25491965 0.104623735 0.30904007 0.32425675 -0.29803985 0.31217 0.058016367 -0.0823547
-0.083256565 0.08748999 0.41072464 0.07488933 -0.22228608 -0.049045675 0.26946592 -0.22209114
0.20018263 -0.42222124 -0.24614722 0.34865972 -0.22935632 0.02492917 -0.2340185 -0.09635278
-0.18320958 0.22427297 0.1004388 -0.13998045 -0.20337126 0.28430516 -0.08678808 -0.0040615043
0.2585588 -0.23889966 -0.14246328 -0.04435416 0.13497289 0.21387558 0.11777358 0.06688298
0.18661639 0.15697564 0.17297545 0.52317613 0.3376514 -0.37905687 0.5047919 0.23349138
-0.4379842 -0.22420834 0.09192571 0.30064413 0.17409046 -0.32315594 0.20593375 0.046728954
-0.058973674 -0.23885125 -0.31964 0.24736328 -0.064712286 -0.38409868 -0.33049792 0.34442848
0.088313505 0.118489906 -0.2954327 0.2959852 -0.04302899 0.043756794 0.01793231 -0.43170327
-0.002853485 0.34155473 -0.23672582 -0.029731793 -0.04887248 -0.012576335 0.17494051 -0.14307116
0.4147195 -0.05027832 0.2087326 -0.07034683 0.26372215 -0.41873345 0.34209824 0.4080015
-0.2523159 0.3785133 -0.03238901 -0.32427594 0.10845696 -0.090793714 0.14966707 0.33317018
0.0067858244 0.37093896 -0.00050905335 -0.20022908 -0.18478785 0.42192465 -0.12412376 0.21486957
0.17797607 -0.16379313 0.28708956 0.25579846 -0.16698137 0.2460268 -0.1601618 -0.37006187
0.117617205 0.09681227 0.08660698 -0.048933443 0.09011697 0.052459218 -0.12457655 0.028562943
-0.09458757 0.2261444 -0.18424484 0.1119091 -0.3733144 0.09346082 -0.24013378 0.006980089
-0.22587115 0.18316038 0.12566084 -0.23264378 0.082279354 0.07510955 -0.25379694 -0.09634512
0.32551816 -0.13506283 -0.027782913 -0.07788501 0.043455288 -0.19640571 -0.22044913 0.22946268
-0.22286236 0.17120832 -0.30834126 -0.46523815 0.059246283 -0.21373105 0.14276378 0.0175682
0.24570657 0.036876943 0.33886567 0.11871314 0.037045784 0.08767138 -0.19591913 -0.2158834
0.072968975 -0.25739866 -0.046983477 -0.19290905 0.24782951 0.3529679 -0.10127311 0.27670193
0.030749746 0.05439812 0.08026428 0.18496473 0.13231096 0.0404319 -0.1284345 0.07747189
00000000: 3a07 c83e 3704 1dbd fd3d adbd 8fca 9fbe
00000010: f9d9 063e 66af a4be 1b0d 993e 6ce9 423d
00000020: b4fb 4ebe 5b4f b53e 486d 73be 478d b0be
00000030: a2eb f03b 6f33 e3be c441 a73e e9d9 32be
00000040: 5505 b03e 3437 ad3e 158f 7abe 2684 c6bc
00000050: a355 32be dc18 a03d 9345 653d dd8d 3dbe
00000060: b36a 94bd b6ac a6be 6463 b6bd bf9e d9bd
00000070: 9450 38bd 1fa7 cfbd c81b e73e 24b3 f43e
00000080: 4763 3d3d 2807 80be c85e 87be 924b 86be
00000090: 88dd 14be ddcf 8b3e 7dd7 a03d 6388 a53d
000000a0: 56ab a03d b677 8d3d a17d d73d 56dd 7dbe
000000b0: 7bfc 3a3e 8d04 26be 7c83 9f3e 3460 b53e
000000c0: 747d ab3e 01df be3e 276d 823e 4d49 bb3e
000000d0: d767 363e 7325 13be 4e2c 54be 261f 1fbe
000000e0: 78bd bdbe 569f 603e e912 79be 3599 3e3e
000000f0: e9a2 8e3d 1ee5 94be 4439 60be b28e 93bd
00000100: 2531 183d 7348 f93d c98f 7dbe ed3c 663e
00000110: 101e bc3d 7173 883e a653 813e 0e1d 7bbe
00000120: f8ab 2ebe ff39 abbe 54ad cbbd aa17 37be
00000130: 1f45 afbe 9ece c03e d456 3fbe abca e1be
00000140: d484 823e f844 d63d 803a 9e3e fb04 a63e
00000150: ae98 98be bfd4 9f3e 92a2 6d3d 95a9 a8bd
00000160: 6b82 aabd f42d b33d 804a d23e 945f 993d
00000170: f69e 63be 1ee4 48bd 70f7 893e dc6b 63be
00000180: adfc 4c3e 622d d8be 040e 7cbe 8783 b23e
00000190: 62dc 6abe 4238 cc3c 8ca2 6fbe 9b54 c5bd
000001a0: 4b9b 3bbe d0a7 653e dcb2 cd3d 0957 0fbe
000001b0: 8e40 50be 7290 913e f3bd b1bd 5e16 85bb
000001c0: d261 843e 1da2 74be e5e1 11be b5ac 35bd
000001d0: 5536 0a3e 3302 5b3e 4633 f13d f2f9 883d
000001e0: 5e18 3f3e 39be 203e 7a20 313e dfee 053f
000001f0: a5e0 ac3e be13 c2be 0b3a 013f 5d18 6f3e
00000200: 773f e0be df96 65be 8c43 bc3d 07ee 993e
00000210: c544 323e b274 a5be 4ce0 523e dc66 3f3d
00000220: 618e 71bd 6c95 74be dba7 a3be cd4c 7d3e
00000230: e087 84bd 95a8 c4be 0637 a9be ee58 b03e
00000240: b6dd b43d d6aa f23d f442 97be 5f8b 973e
00000250: 2b3f 30bd 533a 333d c8e6 923c 3608 ddbe
00000260: 8901 3bbb 43e0 ae3e 4168 72be 1790 f3bc
00000270: 822e 48bd f90c 4ebc 9b23 333e 3f81 12be
00000280: 1d56 d43e a4f0 4dbd 00be 553e 0012 90bd
00000290: 9706 873e 3b64 d6be 8027 af3e 93e5 d03e
000002a0: 8d2f 81be 7fcc c13e 57aa 04bd 7f07 a6be
000002b0: af1e de3d 0ef2 b9bd 5342 193e 4895 aa3e
000002c0: 9f5b de3b b6eb bd3e fe71 05ba da08 4dbe
000002d0: 0739 3dbe 8206 d83e 9934 febd c506 5c3e
000002e0: 5c3f 363e 63b9 27be 67fd 923e 04f8 823e
000002f0: 2afd 2abe 73ee 7b3e 7401 24be c078 bdbe
00000300: 4ae1 f03d 8345 c63d 005f b13d 6f6e 48bd
00000310: 3f8f b83d 7adf 563d fe21 ffbd d5fc e93c
00000320: 21b7 c1bd 6692 673e aeaa 3cbe 9930 e53d
00000330: 1123 bfbe 6368 bf3d a1e5 75be 3bb9 e43b
00000340: c44a 67be 658e 3b3e 3cad 003e 2c3a 6ebe
00000350: 1482 a83d 09d3 993d acf1 81be 9750 c5bd
00000360: 51aa a63e e94d 0abe fe98 e3bc 2d82 9fbd
00000370: 2cfe 313d 941e 49be 6bbd 61be 44f8 6a3e
00000380: 0836 64be 3c51 2f3e e8de 9dbe b233 eebe
00000390: 3bac 723d 50dc 5abe ab30 123e 30eb 8f3c
000003a0: 819a 7b3e 470c 173d cd7f ad3e e01f f33d
000003b0: 52bd 173d 0d8d b33d 069f 48be 8a10 5dbe
000003c0: c270 953d c2c9 83be bf71 40bd f389 45be
000003d0: 05c7 7d3e 35b8 b43e 4768 cfbd e0ab 8d3e
000003e0: e4e6 fb3c 90d0 5e3d 9961 a43d 6567 3d3e
000003f0: 867c 073e ec9b 253d 5584 03be 95a9 9e3d

net.0.bias f4 [128]
-0.29675463 -0.4755676 -0.2563977 -0.63287497 -0.2801041 -0.31844652 -0.036557887 0.32740223
-0.25235403 -0.48827544 0.3478069 0.28075808 -0.22601965 0.2689563 0.3196954 0.31210685
-0.16911855 -0.692565 0.19442344 0.1042013 -0.52840626 -0.6282413 0.37238938 0.16998258
-0.029275175 0.038406156 -0.19430362 0.0726873 -0.376797 0.34058195 -0.33073694 0.055895887
0.012724454 -0.33156356 -0.5256271 0.023075378 -0.104180634 -0.22441666 0.08713531 -0.21959485
0.02841975 0.28974187 -0.09806012 0.09199172 0.29681554 -0.17705494 -0.4202175 0.01220107
-0.3904858 -0.13188054 0.3525263 -0.10412422 -0.14797759 0.048165847 0.0562417 -0.035513196
-0.5248086 -0.2034912 -0.25929603 0.045526665 -0.55463463 0.20889626 -0.35582712 0.2177851
0.36071286 -0.31015262 -0.4840172 -0.3506946 -0.08116017 0.11789886 0.12633862 -0.24030489
-0.3757284 -0.23427375 0.107327804 -0.5103693 0.009299344 -0.3517008 -0.009474763 0.25827718
-0.097136356 -0.06506129 -0.059726454 -0.25130448 0.38274837 -0.17040075 -0.22921139 0.32945123
0.19468977 -0.7075151 -0.18750602 -0.049427833 0.27624714 -0.012239415 -0.022745539 0.037500214
-0.39359117 -0.27458704 0.1769461 -0.006873613 -0.4769306 0.09721987 0.23306699 -0.40812638
-0.40259936 0.08205067 -0.06861341 0.07878987 0.31969282 0.10978351 0.2893413 -0.09762533
0.3477395 -0.05472544 -0.03553193 -0.2827945 -0.33056644 -0.14675309 0.14120455 0.21340369
-0.09206379 0.110099494 -0.11434456 -0.15284444 -0.4009673 0.23176251 -0.57589597 -0.40559402
00000000: 39f0 97be 997d f3be 8f46 83be 1804 22bf
00000010: ce69 8fbe 6c0b a3be b9bd 15bd 44a1 a73e
00000020: 8c34 81be 3dff f9be bf13 b23e 86bf 8f3e
00000030: b271 67be a4b4 893e 1eaf a33e 78cc 9f3e
00000040: 6a2d 2dbe f14b 31bf f016 473e 7e67 d53d
00000050: a245 07bf 6cd4 20bf d2a9 be3e ea0f 2e3e
00000060: 7ed2 efbc c64f 1d3d 87f7 46be 14dd 943d
00000070: 89eb c0be c260 ae3e 5a56 a9be 16f3 643d
00000080: 3a7a 503c b3c2 a9be 7f8f 06bf 9308 bd3c
00000090: a85c d5bd 7bcd 65be ff73 b23d 79dd 60be
000000a0: 89d0 e83c 0c59 943e bfd3 c8bd 2866 bc3d
000000b0: 35f8 973e e44d 35be c026 d7be ffe6 473c
000000c0: c1ed c7be b10b 07be 547e b43e 143f d5bd
000000d0: 7087 17be 8d49 453d b25d 663d 4976 11bd
000000e0: db59 06bf ff5f 50be 73c2 84be 2b7a 3a3d
000000f0: 89fc 0dbf e7e8 553e f92e b6be 0f03 5f3e
00000100: 5baf b83e 53cc 9ebe 1ad1 f7be 3e8e b3be
00000110: 4e37 a6bd f574 f13d e95e 013e 7c12 76be
00000120: 795f c0be 75e5 6fbe aece db3d 90a7 02bf
00000130: 475c 183c 2112 b4be 093c 1bbc e83c 843e
00000140: 6def c6bd db3e 85bd baa3 74bd fbaa 80be
00000150: 98f7 c33e 897d 2ebe 64b6 6abe d5ad a83e
00000160: c15c 473e b61f 35bf 9401 40be d774 4abd
00000170: 4470 8d3e d487 48bc da54 babc d399 193d
00000180: c884 c9be ac96 8cbe 5c31 353e 0c3c e1bb
00000190: 3f30 f4be 361b c73d 1da9 6e3e f1f5 d0be
000001a0: 8121 cebe 2f0a a83d 3085 8cbd 955c a13d
000001b0: c7ae a33e 2dd6 e03d 8b24 943e caef c7bd
000001c0: e90a b23e c827 60bd ee89 11bd 71ca 90be
000001d0: 0140 a9be 7146 16be ed97 103e 7f86 5a3e
000001e0: f18b bcbd d87b e13d 7b2d eabd 4183 1cbe
000001f0: 964b cdbe 2753 6d3e eb6d 13bf 05aa cfbe

net.2.weight f4 [128, 128]
-0.001205946 0.126848 -0.09388126 0.11493531 -0.019221243 0.079362236 -0.053647064 -0.09287
-0.041050572 -0.011509259 -0.09511026 0.04251159 0.084143266 -0.07368505 -0.034673806 -0.028947178
-0.01806254 0.1284506 -0.07060709 0.05054974 0.05307918 -0.16509324 0.05223719 0.111525394
0.056226555 0.07697854 0.091947384 0.08880982 0.12066572 0.012142738 0.11222219 -0.113419235
-0.049241014 -0.07426749 -0.04537161 0.050581057 0.06194329 0.117615275 -0.048178304 0.015333964
-0.04708713 0.016366225 0.085347734 0.18599366 0.145875 -0.018585296 -0.09091106 -0.04657016
-0.1213195 -0.15743643 -0.017033165 0.024800528 -0.03300786 0.008892198 -0.106760494 -0.08909539
-0.010071496 0.06680923 -0.07587694 0.073684305 0.006741271 0.0696583 0.058253393 0.058534347
0.031243775 -0.13713765 0.09268287 -0.13070096 0.048905514 -0.010793418 -0.09473118 -0.026909953
0.013555848 0.01405906 0.014650038 -0.05450598 -0.015326745 -0.09763178 -0.039060146 0.14041264
-0.012214088 0.03689015 0.095353946 0.033712924 0.0031009803 -0.01603111 0.040157538 0.05015506
-0.012232199 -0.23990501 0.05755232 -0.0053047803 -0.004509206 0.033607062 -0.070846304 -0.055799715
0.051795967 -0.021398822 0.026807575 0.05479169 -0.17866278 0.0043690125 0.019062813 -0.026397532
-0.05249928 0.026135307 -0.008529 0.025662765 0.10035207 -0.0393454 -0.028258376 0.10427153
0.058054805 -0.026280772 0.047835976 0.103855655 -0.012644358 -0.01447245 -0.014066365 -0.03675702
-0.057327896 0.07105625 0.024163665 0.043301083 -0.027960198 0.04192336 0.033246342 -0.04923042
0.03366903 -0.15504067 0.03247241 -0.053880263 -0.059604358 -0.06868203 0.010747465 0.016735105
0.070678405 0.010624663 0.016642377 -0.021140473 0.076108254 -0.051912684 -0.08594928 0.0065732487
-0.11442528 0.030443244 -0.0017201692 -0.043618973 0.12283753 -0.052689757 -0.034008395 0.05581555
-0.01247464 -0.12945077 0.10039475 0.028152622 -0.06234182 0.03547573 0.022410508 -0.14937307
-0.018416954 0.006393147 -0.10717077 0.022001034 -0.024357945 -0.101683326 0.035891272 -0.035056338
0.008719054 0.0060561337 -0.114490114 0.04887576 -0.05141595 0.011707373 -0.041611306 0.043633707
-0.060368113 0.03742793 0.05820324 0.06851177 -0.060026687 -0.019632855 0.034836132 0.056412313
0.043611404 0.039780147 -0.072286755 -0.0737696 -0.004896891 0.07878996 0.025075026 -0.0044413228
0.0145902755 -0.07513189 0.016188057 -0.033699524 0.020982772 0.08686869 0.0624103 -0.04283206
-0.08533211 -0.012592187 0.007571369 -0.10356904 -0.03818182 -0.09999124 0.014270094 -0.0018029403
0.04721499 -0.064012684 0.005408899 0.004878345 0.023143457 -0.014673448 0.05810581 0.015718082
0.025255514 -0.057179414 0.042012196 0.04071728 0.042685505 -0.042112514 -0.055757407 -0.06788085
0.09179549 0.031370725 0.016339285 -0.020494912 -0.033564728 0.023633366 -0.057683274 0.13286428
0.08315167 -0.053955793 -0.021007748 -0.04628971 -0.017861476 0.010817789 -0.079918705 -0.04582681
0.00078257197 -0.0024395073 0.037186623 -0.083920725 -0.036955126 -0.03319725 -0.014626742 0.040997837
-0.0018012099 -0.038653344 0.14704156 -0.057810016 -0.115051284 -0.104614444 -0.029678036 0.04240232
00000000: d510 9eba 71e4 013e d144 c0bd 3463 eb3d
00000010: de75 9dbc ab88 a23d 06bd 5bbd a032 bebd
00000020: a524 28bd 5591 3cbc 2bc9 c2bd a220 2e3d
00000030: 4e53 ac3d 30e8 96bd 1f06 0ebd a222 edbc
00000040: e4f7 93bc 8e88 033e 739a 90bd 3f0d 4f3d
00000050: 8e69 593d 340e 29be aaf6 553d 6d67 e43d
00000060: d14d 663d eda6 9d3d e94e bc3d ece1 b53d
00000070: 971f f73d 56f2 463c bfd4 e53d 5848 e8bd
00000080: f2b0 49bd 8e19 98bd 95d7 39bd 152e 4f3d
00000090: 3fb8 7d3d 47e0 f03d 9d56 45bd 4e3b 7b3c
000000a0: 6fde 40bd 7612 863c cbca ae3d 1f75 3e3e
000000b0: 4260 153e 3140 98bc 942f babd 5ac0 3ebd
000000c0: 5c76 f8bd 0437 21be 2389 8bbc 7a2a cb3c
000000d0: 4033 07bd 95b0 113c 3fa5 dabd a577 b6bd
000000e0: ea02 25bc 47d3 883d 5e65 9bbd cce7 963d
000000f0: e1e5 dc3b 03a9 8e3d 1c9b 6e3d b6c1 6f3d
00000100: f2f2 ff3c d06d 0cbe 84d0 bd3d 79d6 05be
00000110: 2651 483d e0d6 30bc 6c02 c2bd 4372 dcbc
00000120: 5919 5e3c f957 663c b706 703c aa41 5fbd
00000130: 071d 7bbc 2cf3 c7bd 88fd 1fbd 55c8 0f3e
00000140: 991d 48bc 201a 173d ee48 c33d 9016 0a3d
00000150: d139 4b3b ad53 83bc 3b7c 243d 646f 4d3d
00000160: 9069 48bc a9a9 75be fbbb 6b3d b9d3 adbb
00000170: f6c1 93bb 8fa7 093d de17 91bd 3e8e 64bd
00000180: 0228 543d 954c afbc 8f9b db3c 406d 603d
00000190: 60f3 36be ef29 8f3b 9e29 9c3c a33f d8bc
000001a0: 7c09 57bd b619 d63c 38bd 0bbc b83a d23c
000001b0: 6385 cd3d a428 21bd 1c7e e7bc 508c d53d
000001c0: e0ca 6d3d c64a d7bc a8ef 433d 46b2 d43d
000001d0: 482a 4fbc db1d 6dbc 9c76 66bc 878e 16bd
000001e0: a8d0 6abd f085 913d e1f2 c53c 7a5c 313d
000001f0: c90c e5bc d4b7 2b3d 512d 083d d6a5 49bd
00000200: 89e8 093d fbc2 1ebe ca01 053d 8db1 5cbd
00000210: b323 74bd 2aa9 8cbd 2316 303c 0f18 893c
00000220: d7bf 903d 1113 2e3c 9855 883c c92e adbc
00000230: a5de 9b3d 65a2 54bd 2d06 b0bd 6864 d73b
00000240: cd57 eabd 1c64 f93c 4d77 e1ba cfa9 32bd
00000250: 3e92 fb3d 37d1 57bd 634c 0bbd d99e 643d
00000260: 6f62 4cbc be8e 04be c39b cd3d 54a0 e63c
00000270: 235a 7fbd 004f 113d 3e96 b73c 41f5 18be
00000280: 27df 96bc 9b7d d13b 597c dbbd 833b b43c
00000290: 508a c7bc 593f d0bd ba02 133d 3c97 0fbd
000002a0: 5dda 0e3c 8872 c63b cb79 eabd f331 483d
000002b0: 8899 52bd 48d0 3f3c 9e70 2abd 42b9 323d
000002c0: 8e44 77bd 074e 193d 8566 6e3d e64f 8c3d
000002d0: 8bde 75bd 15d5 a0bc 55b0 0e3d 9910 673d
000002e0: dfa1 323d 82f0 223d 140b 94bd 8414 97bd
000002f0: 1976 a0bb a15c a13d 246a cd3c 8488 91bb
00000300: 0d0c 6f3c c0de 99bd d19c 843c 8308 0abd
00000310: 10e4 ab3c 36e8 b13d f1a1 7f3d ac70 2fbd
00000320: 9ac2 aebd 764f 4ebc 3f19 f83b 011c d4bd
00000330: 8a64 1cbd 35c8 ccbd 1dcd 693c a350 ecba
00000340: 8164 413d 1519 83bd 223d b13b 86da 9f3b
00000350: 5997 bd3c e768 70bc 5c00 6e3d 35c3 803c
00000360: a7e4 ce3c f634 6abd fb14 2c3d 2ac7 263d
00000370: ffd6 2e3d 2c7e 2cbd e161 64bd 1d05 8bbd
00000380: 46ff bb3d 977e 003d f7d9 853c f2e4 a7bc
00000390: 2b7b 09bd c39a c13c 4c45 6cbd 930d 083e
000003a0: 6c4b aa3d c000 5dbd 7118 acbc 479a 3dbd
000003b0: 3b52 92bc 183d 313c 6bac a3bd e5b4 3bbd
000003c0: 8425 4d3a 24e0 1fbb 0051 183d a1de abbd
000003d0: 425e 17bd d7f9 07bd 01a5 6fbc 59ed 273d
000003e0: 9316 ecba f852 1ebd 1092 163e 32ca 6cbd
000003f0: 02a0 ebbd 1940 d6bd 5a1f f3bc 0eae 2d3d

net.2.bias f4 [128]
-0.06389934 -0.08815419 0.08365394 -0.00096978433 -0.040755477 0.10421809 -0.057949226 -0.09837508
0.06951318 0.0782481 -0.03900359 0.085295275 0.096764065 -0.21244092 0.08388401 0.08760101
-0.16905142 -0.08589095 0.0781799 -0.1359409 0.04563317 0.09757693 0.025874026 -0.18315566
-0.17739747 -0.0861439 0.182286 -0.03436369 0.057049688 0.027332598 0.14568496 -0.090794995
0.015592665 0.02034184 0.010024437 0.03402867 -0.059052438 0.11521129 -0.038914036 -0.03528363
0.030665636 0.041408084 0.1045913 0.15554255 0.052927844 0.027845588 -0.066418685 -0.086173885
-0.06796877 -0.031684622 0.047830906 -0.05600618 0.0035894248 -0.036188435 -0.10201376 0.016355753
0.068529315 0.04015561 -0.03969727 -0.08338108 0.08728894 -0.072619215 -0.011114714 0.12062118
-0.07118497 0.084073424 -0.11996591 0.033610716 -0.08787489 0.09570732 0.008151112 -0.08699888
0.13078447 0.06370768 0.022455545 0.07980845 -0.041614488 -0.015263762 0.016187398 -0.061149307
0.038468022 -0.24184714 -0.06447407 0.053291928 0.027805317 0.045967888 0.010086287 0.038174048
-0.024566062 0.02789342 0.020373136 0.076971784 -0.11377868 0.034308847 -0.028171863 -0.06666363
-0.08979369 0.06554495 -0.052341204 -0.009334074 -0.1130097 0.05078315 0.05212441 -0.18550335
-0.11382495 -0.14959146 -5.547945e-05 -0.08673755 0.11236772 -0.07782339 0.05009009 0.032685697
0.0570423 0.09398435 0.14002359 0.07002318 -0.109056026 -0.15352133 -0.040480778 0.019037243
-0.20717879 0.120855644 -0.057276558 0.060851727 -0.01792985 0.07504565 0.0061362097 0.06176978
00000000: a8dd 82bd 2f8a b4bd c252 ab3d 2039 7eba
00000010: 37ef 26bd 4b70 d53d 2b5c 6dbd e078 c9bd
00000020: ed5c 8e3d 8a40 a03d 3ac2 1fbd 4aaf ae3d
00000030: 3d2c c63d 1d8a 59be 61cb ab3d 2968 b33d
00000040: d11b 2dbe 98e7 afbd c91c a03d 1734 0bbe
00000050: d9e9 3a3d 6ad6 c73d c4f5 d33c 288d 3bbe
00000060: afa7 35be 376c b0bd 2ea9 3a3e f1c0 0cbd
00000070: efac 693d 9de8 df3c 702e 153e baf2 b9bd
00000080: 6178 7f3c eea3 a63c 893d 243c a661 0b3d
00000090: f8e0 71bd e6f3 eb3d 5364 1fbd 9185 10bd
000000a0: 8036 fb3c 869b 293d f733 d63d 8c46 1f3e
000000b0: deca 583d 6e1c e43c 8506 88bd ef7b b0bd
000000c0: 3633 8bbd bcc7 01bd 57ea 433d bc66 65bd
000000d0: 8e3c 6b3b 533a 14bd 97ec d0bd 80fc 853c
000000e0: 1959 8c3d 357a 243d 9b99 22bd b3c3 aabd
000000f0: 8bc4 b23d 62b9 94bd 7d1a 36bc 3d08 f73d
00000100: 6dc9 91bd b02e ac3d b0b0 f5bd 64ab 093d
00000110: c0f7 b3bd 3302 c43d 3e8c 053c 782c b2bd
00000120: 5dec 053e 2c79 823d b1f4 b73c 9d72 a33d
00000130: f473 2abd dc14 7abc 6f9b 843c b277 7abd
00000140: a590 1d3d c7a6 77be fb0a 84bd a348 5a3d
00000150: fac7 e33c d348 3c3d f440 253c 645c 1c3d
00000160: c43e c9bc be80 e43c 90e5 a63c 62a3 9d3d
00000170: cc04 e9bd 6f87 0c3d aec8 e6bc f186 88bd
00000180: c1e5 b7bd 6e3c 863d bb63 56bd f2ed 18bc
00000190: a171 e7bd fe01 503d 6880 553d 97f4 3dbe
000001a0: 0e1d e9bd 812e 19be 9bb2 68b8 75a3 b1bd
000001b0: 0c21 e63d df61 9fbd 442b 4d3d 70e1 053d
000001c0: 30a5 693d de7a c03d 5862 0f3e 5068 8f3d
000001d0: c458 dfbd b234 1dbe 2ccf 25bd fef3 9b3c
000001e0: ad26 54be 2a83 f73d d39a 6abd a93f 793d
000001f0: 9fe1 92bc 89b1 993d 4212 c93b 4f02 7d3d

net.4.weight f4 [6, 128]
0.02132063 -0.016924225 -0.004961575 0.008505621 -0.030719293 0.061542887 0.06355632 0.023266008
0.066698745 -0.080870554 -0.047489766 -0.0039898693 -0.07809689 -0.051023923 0.056121048 0.05269765
-0.07390725 0.01597576 -0.03661476 -0.099601366 0.0626957 -0.08701565 0.00282886 -0.028138043
0.009759903 -5.6925633e-06 0.054953128 -0.0065357317 -0.077243306 -0.01380164 0.10115806 -0.045227405
-0.02985796 -0.03214586 -0.027146013 0.09392608 -0.010494772 0.0089914715 -0.07794454 0.008189981
-0.019645765 0.012780706 -0.11616702 -0.0753358 -0.02500655 -0.0013485514 0.02782122 0.0074972142
-0.008586982 0.06252428 0.06899961 0.044437815 -0.010627454 -0.08106151 -0.012054172 -0.08519343
0.04834397 -0.00877245 0.08223576 0.0063289762 -0.011436002 0.056794036 -0.03219289 0.06477018
-0.020730054 -0.018214036 -0.06910981 0.009665974 0.0045031123 0.09516465 -0.027650513 -0.08150993
0.06611672 0.022485152 -0.011687718 0.042199273 0.0054409015 0.035651565 -0.019685052 -0.037915237
-0.08658946 -0.21392861 -0.042640023 0.053227756 0.062293183 0.05256352 0.05427747 -0.11101385
0.09450419 -0.038381904 0.023927359 -0.062785454 -0.016845409 -0.08315462 -0.0072042365 0.05754503
-0.020177353 0.023997776 -0.06276033 -0.05734459 -0.117562704 -0.03754997 0.010222569 0.010367594
0.013742291 -0.025844257 0.0017845654 0.010790888 0.071192294 0.066126406 0.0699964 -0.010677566
-0.026953224 0.06703946 0.05354577 0.08105785 0.041224625 -0.069023594 -0.016998805 -0.04914375
0.022218326 0.009637209 -0.086130075 -0.10606053 0.028028168 -0.050753742 0.025498519 0.017729752
-0.0323332 -0.003911771 -0.011235784 0.09714898 -0.06509201 0.038160946 0.044466857 0.028700234
0.09532503 -0.094471775 0.026264504 -0.046467885 0.00056409807 0.06917557 0.017759256 -0.07518389
0.041110635 0.0054230196 -0.034559924 0.10148146 -0.07392659 -0.105825186 -0.0026747165 0.2836944
0.3296693 0.0090213725 -0.061866347 -0.020973753 -0.08742328 -0.01224358 0.05447259 0.052408263
-0.0122304 0.013590847 -0.10064818 -0.05460556 -0.015845707 -0.15625556 -0.02541269 0.039487623
-0.013089266 0.03728216 -0.04411076 -0.05880937 0.025515111 0.010894391 -0.010390175 0.045921654
0.010591084 0.015329452 0.06381098 0.0014805442 0.07276962 0.0050322316 0.03470728 -0.11652136
0.10284593 -0.06840113 0.056890357 -0.006046402 -0.09699338 -0.06806509 -0.022270344 0.110492125
0.0126112215 0.041148968 -0.03472547 0.021379972 -0.048025925 -0.006157874 0.024872968 0.02756147
-0.09196245 -0.029844135 -0.013024864 0.0012918678 0.11697302 0.10051568 0.018212408 0.015147424
0.0468878 0.188283 0.055429436 0.102521904 0.09935839 -0.07492665 -0.056258436 0.0008046648
0.032505404 -0.03323624 0.03885128 -0.03998609 0.27024606 -0.05440874 0.080054194 -0.14648093
-0.0011899354 0.074952446 0.0248976 -0.08335374 0.046579506 0.0063275453 -0.012711785 0.032967538
0.0038411035 0.04988923 -0.07480643 0.0758163 -0.09538794 -0.014682057 0.04421321 0.064269744
-0.007574123 -0.050958402 0.0284941 0.13239676 0.04791111 0.085075885 -0.03744217 -0.023795249
0.096671075 -0.065306954 -0.064943515 0.055470213 0.0063341237 0.029367974 -0.00066074677 0.008471367
00000000: 9aa8 ae3c aca4 8abc b594 a2bb 295b 0b3c
00000010: 07a7 fbbc 6514 7c3d d129 823d 5b98 be3c
00000020: 5a99 883d 769f a5bd a184 42bd 73bd 82bb
00000030: 43f1 9fbd 76fe 50bd 2fdf 653d 7ed9 573d
00000040: af5c 97bd 99df 823c 5cf9 15bd cdfb cbbd
00000050: 9a66 803d 4335 b2bd 6564 393b c181 e6bc
00000060: 00e8 1f3c bf02 bfb6 8816 613d b129 d6bb
00000070: bd31 9ebd 4620 62bc f52b cf3d 5f40 39bd
00000080: ae98 f4bc 61ab 03bd 5161 debc 515c c03d
00000090: 44f2 2bbc f750 133c 63a1 9fbd 452f 063c
000000a0: 28f0 a0bc 2b66 513c f9e8 edbd a849 9abd
000000b0: 89da ccbc e0c1 b0ba 54e9 e33c 31ab f53b
000000c0: 6ab0 0cbc bb0c 803d ab4f 8d3d 6d04 363d
000000d0: c61e 2ebc 9403 a6bd dd7e 45bc e579 aebd
000000e0: 5404 463d 52ba 0fbc 396b a83d 4d63 cf3b
000000f0: 125e 3bbc dda0 683d b1dc 03bd 3aa6 843d
00000100: 13d2 a9bc 9a35 95bc 7289 8dbd 095e 1e3c
00000110: d88e 933b afe5 c23d 5483 e2bc aeee a6bd
00000120: 3468 873d c832 b83c d87d 3fbc 25d9 2c3d
00000130: 9749 b23b 6007 123d 8c42 a1bc 024d 1bbd
00000140: d155 b1bd 1a10 5bbe 4ea7 2ebd 5905 5a3d
00000150: 2327 7f3d d84c 573d 0d52 5e3d 3b5b e3bd
00000160: 6a8b c13d 5836 1dbd 4f03 c43c a995 80bd
00000170: 62ff 89bc f84c aabd 8411 ecbb 56b4 6b3d
00000180: fa4a a5bc fc96 c43c 7d88 80bd 29e2 6abd
00000190: b7c4 f0bd ffcd 19bd 907c 273c d7dc 293c
000001a0: 5927 613c 56b7 d3bc 14e8 e93a 44cc 303c
000001b0: 44cd 913d 486d 873d 465a 8f3d f5f0 2ebc
000001c0: 02cd dcbc fc4b 893d cf52 5b3d a801 a63d
000001d0: 27db 283d 3e5c 8dbd 1441 8bbc f54a 49bd
000001e0: 3503 b63c 62e5 1d3c f764 b0bd 4336 d9bd
000001f0: 549b e53c 28e3 4fbd 45e2 d03c fc3d 913c
00000200: d16f 04bd 502e 80bb 4b16 38bc 0bf6 c63d
00000210: f64e 85bd a74e 1c3d e122 363d c11c eb3c
00000220: c539 c33d 6b7a c1bd a828 d73c 1c55 3ebd
00000230: fbdf 133a ecab 8d3d dc7b 913c 03fa 99bd
00000240: a063 283d 96b3 b13b b58e 0dbd 83d5 cf3d
00000250: d366 97bd e0ba d8bd 4c4a 2fbb 6440 913e
00000260: 6aca a83e 61ce 133c 9167 7dbd 26d1 abbc
00000270: fa0a b3bd 4c99 48bc a71e 5f3d 0caa 563d
00000280: 0462 48bc 25ac 5e3c a220 cebd 14aa 5fbd
00000290: dbce 81bc 7501 20be 462e d0bc c6bd 213d
000002a0: 5c74 56bc 2eb5 183d 7cad 34bd 18e2 70bd
000002b0: 1105 d13c 637e 323c 8d3b 2abc 5818 3c3d
000002c0: 3a86 2d3c 6228 7b3c 55af 823d d20e c23a
000002d0: 3d08 953d 6be5 a43b 3929 0e3d c0a2 eebd
000002e0: e3a0 d23d e415 8cbd dd05 693d e520 c6bb
000002f0: 77a4 c6bd b665 8bbd 4c70 b6bc b249 e23d
00000300: 4c9f 4e3c d28b 283d 4b3c 0ebd 0d25 af3c
00000310: d5b6 44bd fec7 c9bb 65c2 cb3c 98c8 e13c
00000320: cf56 bcbd b07b f4bc 3d66 55bc e453 a93a
00000330: 8d8f ef3d 2adb cd3d 3032 953c e72c 783c
00000340: 6c0d 403d 42cd 403e fa09 633d 01f7 d13d
00000350: 697c cb3d 2573 99bd 3f6f 66bd 24f0 523a
00000360: 6324 053d b922 08bd 8522 1f3d 74c8 23bd
00000370: b15d 8a3e b3db 5ebd 74f3 a33d 19ff 15be
00000380: 9bf7 9bba ab80 993d 0df6 cb3c 5eb5 aabd
00000390: 27ca 3e3d 4c57 cf3b 1745 50bc f808 073d
000003a0: 06bb 7b3b a658 4c3d 1d34 99bd 9445 9b3d
000003b0: c15a c3bd 038d 70bc e918 353d db9f 833d
000003c0: 5930 f8bb c2b9 50bd 756c e93c 0493 073e
000003d0: 713e 443d 443c ae3d f65c 19bd 41ee c2bc
000003e0: 7cfb c53d a7bf 85bd 1b01 85bd bc34 633d
000003f0: 7b8e cf3b 1b95 f03c f735 2dba 7dcb 0a3c

net.4.bias f4 [6]
0.055323664 0.00078578445 0.004131022 0.070455305 0.007159116 -0.105573595
00000000: 119b 623d 1afd 4d3a 865d 873b df4a 903d
00000010: 0597 ea3b f836 d8bd
